model/mnist_cnn_weights.pth (torch, 37868 bytes, 6 tensors)

conv1.weight f4 [6, 1, 3, 3]
00000000: 8913 b9be 3a34 a6bf 1079 41bf 1b9a f0bb
00000010: cade 2bbe 8f16 d33c d45d 913f f3c2 4c3f
00000020: 34af 593f ff6f 2f3f 2d42 413f c9b4 823f
00000030: 86cc 083f b88a 433f 678f c93e e668 95be
00000040: 85a4 d4bf 3c13 abbf 3a26 7c3f 4052 90be
00000050: 6da3 d3bf d581 793f a716 7d3f 7768 51bf
00000060: 0e4c 653d 5210 683f 61b8 413e 5b83 efbf
00000070: 9eb8 8bbf f150 813f c719 60be 461c 733f
00000080: 5277 393f 19fd 253f 15b5 dc3e 8a03 fd3d
00000090: ee13 66bd ae28 0d3e 36d4 2abd b32a f63e
000000a0: 21ec ac3f 5d57 c93e 02a8 963e eab9 143f
000000b0: cb08 8abe 1078 a73e abc3 cc3e d674 303f
000000c0: 7059 b7bd db27 14be b207 113f 06f4 6c3e
000000d0: 3cfa a03e 87b9 4a3f
-0.36147717 -1.2984688 -0.7557535 -0.0073425896 -0.16784206 0.025767593 1.1356759 0.7998497
0.85032964 0.6853027 0.754916 1.0211421 0.5343708 0.76383543 0.3936722 -0.29181594
-1.6612707 -1.3365245 0.9849583 -0.28187752 -1.6534249 0.9746373 0.9886269 -0.81800026
0.055980735 0.906499 0.18917991 -1.8711962 -1.0915716 1.0102826 -0.21884833 0.94965017
0.72447693 0.6483932 0.43106905 0.12354191 -0.05617135 0.1378505 -0.041706286 0.48079452
1.3509561 0.39324465 0.29425055 0.5809618 -0.26959834 0.32708788 0.39993033 0.6892828
-0.08952606 -0.14468329 0.5665237 0.23139963 0.31440914 0.7918934

conv1.bias f4 [6]
00000000: c401 bd3a 49ae 47bc 6ee8 90bd 891c 50bd
00000010: f3c8 34be 3313 aabe
0.0014420082 -0.012187549 -0.070755824 -0.050808463 -0.17654781 -0.33217773

conv2.weight f4 [16, 6, 3, 3]
00000000: aee1 e33e 9bb8 0dbd dec5 a83d 270a 8e3d
00000010: 0874 49bd 443e ef3e c99f 333e 7dc9 8ebe
00000020: 9532 35bd 5456 33bf be13 86be aa2f 14be
00000030: 7a8f 38bf 23e9 97be 27a9 24bf 5a48 d23e
00000040: 0865 063e 472a b93e becb dbbe 2fda 81be
00000050: 255a 2d3e 5260 ee3d aa5d 6ebe 57f8 abbd
00000060: 02e5 d03d 23af 4abe 5251 dcbe 782a e63e
00000070: 5c28 243f 678b cfbe 0abf 683d b678 0a3d
00000080: fc53 953d 9ffe cebe dd36 953e e8df 98be
00000090: 8082 ccbd dad1 943e 7f43 54be cc28 fdbd
000000a0: 5d6d 80bd ce8c 783e 17b0 443e fa9e e33e
000000b0: ef3f 323e d36c 82be 3a23 b73e 51ee 57be
000000c0: fb50 163e b79c b5bc 2b12 b03e d229 16be
000000d0: af5e 19bc a824 ee3e 6bdf 8abe dfab 93bf
000000e0: fb9f 27bf 6630 81bd 6140 67bf a7c5 df3e
000000f0: a854 003e d7a1 013f e55f 2e3e c524 cdbe
00000100: 1c39 2f3e 6d60 13bf 9031 b9be 5c56 b63d
00000110: 8c19 cbbe ea4c 40be 5a2c 70be 18df 2a3f
00000120: 0175 01bf 2525 153f 9f8b f03e e821 aebe
00000130: 75ea e73c 052e 6cbe 9c5b 34be 5152 fbbd
00000140: bafe 4abe e69c 4c3f 1c83 34bf 6804 abbe
00000150: 7415 8a3f ebb5 c8be f913 c0bd 4e67 0f3e
00000160: ffe7 41be 0ece 7d3e d83a 36be dd3d ee3d
00000170: bfad 5fbe 4e4d b43e 4c34 37bc f2cb 16be
00000180: 8dc7 c23d 627d 90bd 7311 273e 23a3 c93e
00000190: 9ab9 d03d d55e 47bf 9ae5 053f 8a6b a5be
000001a0: 9c5a 953e 347e 963d 5e72 783d b03e 7abd
000001b0: 2431 fabc f1f3 b13e 8f83 08be e5a1 10bf
000001c0: 399f bbbd 6ce5 b43c 63cf 0c3f a174 f13e
000001d0: 39f2 113d 29a9 af3c d0d8 693e 1c34 843e
000001e0: e120 c13d 8660 1b3f e830 18be cb91 71bf
000001f0: 303e 3ebf b518 6dbe 8c33 133e 2c94 953e
00000200: bb32 bd3d ccaa d4bd 5d31 b2be 28cc fd3b
00000210: 121d 303d 92df 23be bb10 45bd 146a 763d
00000220: 5b9c bc3e e1ce af3e 9779 3abf 934c 55bf
00000230: ee8d 9bbe 91d7 083e a369 773e 9e48 383e
00000240: c4c6 833e 1c06 d33e f6eb 163f 1823 e2be
00000250: 0079 e4be fa88 b1be 79cd e63e e3d3 9e3e
00000260: cbbc 9fbe a8c3 3abd b337 843e 0f92 6f3e
00000270: 96f4 96be 40aa 64be 9b88 9dbe 1833 b73d
00000280: 111d 563d ebf0 d43d 57f8 79be 9a22 7f3e
00000290: dc01 16bf 3743 d4be 3bd5 fbbc 3bdb 5f3e
000002a0: f14b 27bf 427d 07be aa13 773d 48f1 11bf
000002b0: 4aba e63e 5eff 0c3e c0ba 46bf 62d9 953e
000002c0: 86b2 01bf 28eb d8be 3c65 3fbe 336b 77be
000002d0: a193 00be e892 1e3e cce0 0abd a2bc 11bd
000002e0: 1fff 403f 67be db3c 17ec 04bf 3645 a83e
000002f0: ff26 fe3e b637 9c3d 4cdb 6bbd ec0c 10be
00000300: 8810 1d3c f0fd ae3d 6867 ac3d 483d 45bc
00000310: 1bf1 b3be 3025 b23d a6ae 05be a81c 5c3e
00000320: 815f cbbe 5fbd 6dbd 0073 e73e 939e 01bf
00000330: 847c d2bc 0e37 ef3e 46e3 5d3e 39cf 683e
00000340: 4acb 433e b745 00bf 418b ddbc 4455 c33e
00000350: 5859 5ebf 3c99 473e 8ac9 3a3e c6f0 11bf
00000360: fd49 53be ea3c 9339 daeb 3ebf ed94 8fbf
00000370: 7384 59bf ca72 6fbf e7f9 b0bf 2a7a a7be
00000380: 90c3 0c3e 9965 03bf c7ce 5abe 7bf2 0f3e
00000390: ddd4 eabe 21f0 76be 9b02 563d 3536 38bf
000003a0: 7dd5 b5bd 15ef 94bc cfb4 47bf 5471 3abe
000003b0: bcc0 b13e 2219 84bf aa1a b73e 4af9 133f
000003c0: 801a 89bf 652b d53e 3238 393f 7eb8 413e
000003d0: 4bde 97bd 821a d9bd 09f6 a93d 6844 c53d
000003e0: 3401 f9be 7e7b 6dbd a0ed adbc d655 5dbf
000003f0: 0079 c2bd 20c9 d73d de1e babc f9f6 5d3d
0.44508117 -0.03459988 0.08240865 0.0693553 -0.04918292 0.46727192 0.17541422 -0.27888098
-0.044237692 -0.700536 -0.26186937 -0.14471307 -0.7209393 -0.29670057 -0.64320606 0.41070825
0.13124478 0.36165068 -0.4292888 -0.25361773 0.16928919 0.116394654 -0.23277918 -0.083969764
0.1019993 -0.19793372 -0.43030792 0.44954276 0.64124084 -0.40536043 0.056822814 0.033806525
0.072914094 -0.40428635 0.2914342 -0.29858327 -0.099858284 0.29066354 -0.20728873 -0.12361297
-0.062708594 0.24272463 0.19207798 0.44457227 0.17407201 -0.2547365 0.35769063 -0.21087004
0.14679329 -0.022169454 0.3438886 -0.1466439 -0.009360953 0.46512341 -0.2712358 -1.1536826
-0.65478486 -0.063080594 -0.9033261 0.43705484 0.12532294 0.50637573 0.17028768 -0.40067115
0.17111629 -0.5756901 -0.36170626 0.089031905 -0.39667928 -0.1877934 -0.23454419 0.66746664
-0.5056916 0.58259803 0.46981522 -0.34010243 0.02831004 -0.2306443 -0.17613071 -0.1227156
-0.19823733 0.7992691 -0.7051256 -0.334018 1.0787797 -0.39201292 -0.093788095 0.14004251
-0.18936156 0.24785635 -0.17795885 0.11632893 -0.21843623 0.3521523 -0.011181902 -0.14726236
0.095107175 -0.07055165 0.1631525 0.39382276 0.10191651 -0.7787908 0.5230347 -0.32308608
0.29170692 0.0734829 0.060655944 -0.06109494 -0.03054101 0.34756425 -0.13331436 -0.5649703
-0.09161229 0.022082053 0.55003947 0.47159293 0.035631392 0.021442967 0.22836614 0.25821006
0.09430099 0.6069416 -0.14862406 -0.9436309 -0.7431364 -0.23153956 0.14375132 0.2921461
0.09238192 -0.103841394 -0.34803286 0.0077452846 0.042996474 -0.16003254 -0.04811166 0.060159758
0.3683804 0.34337524 -0.7284178 -0.8331997 -0.3038172 0.13363482 0.24161391 0.17996451
0.25737584 0.412156 0.589538 -0.441674 -0.44623566 -0.34674817 0.45078638 0.31021032
-0.31198725 -0.04559675 0.25823745 0.2339556 -0.2948348 -0.2233057 -0.30768284 0.08945292
0.052273814 0.10397514 -0.2441114 0.24915543 -0.5859659 -0.4145753 -0.030741325 0.21860974
-0.6535025 -0.13231376 0.060321487 -0.5700879 0.45064002 0.1376929 -0.7762871 0.29267412
-0.5066303 -0.4236691 -0.18690962 -0.24161987 -0.12556316 0.15485728 -0.03390579 -0.035580285
0.75389284 0.02682419 -0.51922745 0.32865304 0.49639127 0.076278135 -0.057582185 -0.1406743
0.009586461 0.085445285 0.08418161 -0.012038536 -0.35144886 0.08698499 -0.13054904 0.21495306
-0.397213 -0.058041926 0.45204926 -0.5063259 -0.02569414 0.4672169 0.21668729 0.22735299
0.19120517 -0.50106376 -0.02704394 0.3815099 -0.8685508 0.19492048 0.18240944 -0.57008016
-0.20633693 0.0002808341 -0.7457863 -1.1217324 -0.84967726 -0.9353453 -1.3826264 -0.3271039
0.13746476 -0.513269 -0.21367942 0.14057343 -0.45865527 -0.2411504 0.05224858 -0.71957713
-0.0887861 -0.01818041 -0.78010267 -0.18207294 0.34717357 -1.032017 0.3576253 0.5780226
-1.0711212 0.4163467 0.7235137 0.18918034 -0.07415446 -0.10600759 0.082988806 0.09632188
-0.4863373 -0.0579791 -0.021231472 -0.864591 -0.09495735 0.105364084 -0.022719797 0.05419061

conv2.bias f4 [16]
00000000: 8523 50bf efad 47bf a4e4 04bf 3b37 0fbe
00000010: cdce 0cbd 6fe9 8dbd 0a0a 07bf 7524 8ebf
00000020: 73a4 c0bd c51b 123b d764 34bf 4fda 06bf
00000030: 3805 d0bc f25a c7bd a871 b9bd d08c c93a
-0.813042 -0.77999777 -0.5191138 -0.13985913 -0.034376908 -0.069292895 -0.52749693 -1.1104876
-0.09406366 0.0022294384 -0.7046637 -0.5267686 -0.025393113 -0.09734143 -0.09054881 0.0015377048

fc1.weight f4 [10, 784]
00000000: 4a41 36bf 110e ff3e 8cb4 343f f320 f33d
00000010: b782 0e3e 1a0d babd 9182 a23e 8397 1d3e
00000020: acc5 15be e767 e13c 0225 8f3e fc47 363e
00000030: 15f2 b33e ba7f f23e a3c5 1d3d 1672 1abd
00000040: 7b58 cebb 02ca 86be f612 febd 1744 d63d
00000050: 3963 d2be b4ee 763d b503 8f3e 213e b6be
00000060: 7def 5cbf a075 12bf 2e5a ab3d fa6b 76bc
00000070: 5b1c f93d 6e33 8ebd 1081 9bbd 96cc 91be
00000080: d489 8c3e 4d4a 1b3c d221 b5bd abe4 e0be
00000090: 8ecd e23e d822 34bd b180 463d f7b7 bf3e
000000a0: ac37 a3bc 39c0 0d3f 4906 6cbe 66f6 71bd
000000b0: 6ea3 87be 6111 28bf a321 a93e 5300 b2be
000000c0: 50d8 ed3c 049f 2ebf 375f 213e 2168 e2be
000000d0: 4bba 2c3e e643 dbbe b8ee dbbe d25f 0fbf
000000e0: 9cd2 253e 3a93 8abe 773a 0bbe a508 e9be
000000f0: fd0e 5c3e 2e1e 92be 9598 ce3e 4ee8 2e3e
00000100: 5618 243e 715e 3d3e 71f8 cbbe 7c02 68be
00000110: 107d 843d 4485 e73e f43e 463f 80f7 e23e
00000120: 089f 88be ff5a a63d 2b8a 0d3f 4a18 4d3d
00000130: 2542 bc3d 2c7d 56bf 4e0e e63d 32bb 653e
00000140: cb5c 153f 1432 a63e eabb 3dbd 488b c53d
00000150: 7fe3 21bf 1749 4cbe 9848 9b3e cbc9 32bf
00000160: ea5e 573e 0093 283e 0ff0 793d 91fd 5ebd
00000170: 0b21 a13e 1ec0 8dbf 74cf d6bf 786c a2bf
00000180: ae72 8abf 86ba 2bbf aa38 61be 6bc1 b53e
00000190: ed98 263e ea74 b23d a206 a3bd c1b8 1fbe
000001a0: 323c 9c3d 35d5 f0be 1f81 873e 45b0 b1be
000001b0: 84f8 d9be 2d46 a8bd 3a85 a03d a928 2f3e
000001c0: 19a7 8cbd 7835 d5be c346 04bf 32fa 0bbf
000001d0: 0643 11bf 4158 04bf 4c19 98be d5b4 26be
000001e0: ab58 3fbf c157 e9be 2364 a5be aa83 073d
000001f0: 4907 33bf 5e80 b9bf 0607 903e 2da1 17bf
00000200: bedd aebe 0e39 18be f39a 65be e8d1 7f3d
00000210: 0c7f 2e3e 9181 783c f468 a0bd 0c15 ef3c
00000220: 1c1d d0bd 7fa6 c53c 5fe5 20be 9660 9e3e
00000230: 56e5 723e d2d5 fa3c 1d22 863d a35b 6e3e
00000240: 3a79 3e3d 57bb 53be ef1a 593e 58ea a7be
00000250: 2986 7b3e 187b c1be 7d72 c5be e046 21be
00000260: 7f6a 53be 5266 16be d109 66bf 8072 993e
00000270: 1164 68be f0df 3f3e 31e3 a7bd 76ea 203e
00000280: cab5 9a3e 21c9 443e 66c2 e8bb 85ed 893d
00000290: a8d6 77be 3e3f 553e b5ec b73e a35a 5ebe
000002a0: b3e2 e43c ab07 b93e 3e48 b53e 0d29 d63e
000002b0: 7cbc 933e 8ad8 7b3e a0ba fd3b 3d3a f7be
000002c0: 19d8 90bd 7068 513e d0ba 643d 9336 c6bb
000002d0: baee c6bd 8d89 71bd 9631 413e 4f2c d43e
000002e0: 06e3 6a3e a3f1 abbf c1e8 52be 5b1f 1fbf
000002f0: fb0e 023c f312 fc3d f68f 223f a69d 1ebf
00000300: 9cec 63bf e897 b2bf cc6c 90bf 40df 16bf
00000310: cfbd acbe 781c 0abe e8a9 72bf ee95 c73e
00000320: 1765 d1be 4110 db3d 74be 74be 32db 2bbf
00000330: 5c32 8f3d ec5e 373e df8a 37bf 8eab 99be
00000340: a21f ec3e 8742 6fbe a341 9a3e ef53 743e
00000350: a1d7 8a3d 4a37 e9be 40fc ef3e 55b5 99be
00000360: 2401 133f 14ab 39bd b98a 323e 7033 a23e
00000370: a982 f3be 4f1c 5f3c 3356 8dbd 5129 163e
00000380: 4304 8ebe 9418 683d 4384 c03d 2606 eebc
00000390: 74f8 4fbe 68b8 e2be 3313 88be 02bb 433e
000003a0: c0bc e13d 065f 9e3e 299b 15be 8a29 abbf
000003b0: bb57 3fbf 7acf 26bf f1f7 15be 8453 15be
000003c0: 3215 2ebe d1f7 32bf 2e56 8dbf 4dcd 2dbf
000003d0: 9b9c d5bd 3580 493e e9bb 243f dfd8 05bf
000003e0: af05 fcbd bf1a 83be ea2f abbe af66 59bd
000003f0: 1d87 723d 487b 46bf 8aa1 b4be e260 023d
-0.71193373 0.4981542 0.7058799 0.11871519 0.13917051 -0.0908453 0.3174024 0.15389828
-0.14626187 0.027515365 0.27957922 0.17800897 0.3514563 0.47363073 0.03851856 -0.037706457
-0.006297169 -0.26325995 -0.1240596 0.10462206 -0.41091326 0.06028624 0.27932516 -0.35594276
-0.8630293 -0.5721073 0.0836681 -0.015040392 0.121636115 -0.06943403 -0.07592976 -0.284764
0.27448905 0.009478164 -0.08844341 -0.4392446 0.4429745 -0.043978542 0.048462573 0.37445042
-0.019924007 0.55371433 -0.23049273 -0.059072874 -0.26491874 -0.6565152 0.33033475 -0.34765872
0.02903381 -0.6821139 0.15758978 -0.4422007 0.1686794 -0.4282524 -0.42955565 -0.56005585
0.16193622 -0.2706545 -0.13596521 -0.45514408 0.21490093 -0.2853865 0.40350786 0.17080805
0.16024908 0.18493058 -0.39837983 -0.22657198 0.06469166 0.4521886 0.7743981 0.44329453
-0.2668383 0.08122825 0.5528895 0.050071992 0.091923036 -0.8378475 0.11233197 0.2243469
0.58344716 0.32460082 -0.046321787 0.096457064 -0.63237756 -0.19949757 0.30328822 -0.6983916
0.210323 0.16462326 0.061019953 -0.05444104 0.31470522 -1.1074255 -1.678206 -1.2689352
-1.0816247 -0.6708149 -0.21994272 0.3549913 0.16269274 0.08713706 -0.079602495 -0.15597822
0.07628669 -0.47037664 0.264657 -0.34704795 -0.42572415 -0.0821651 0.07837911 0.17105354
-0.06867809 -0.41642356 -0.51670474 -0.5467864 -0.56742895 -0.51697165 -0.297068 -0.1627992
-0.7474467 -0.45574763 -0.3230296 0.03308455 -0.6993299 -1.44923 0.28130358 -0.5923031
-0.3415355 -0.14865515 -0.2242239 0.06245604 0.17040652 0.01516761 -0.07832518 0.02918484
-0.10161802 0.024127243 -0.15712498 0.30933064 0.23720297 0.030619536 0.06549475 0.23277144
0.04650233 -0.20676933 0.2120168 -0.32795978 0.24562897 -0.37789226 -0.3856391 -0.15749693
-0.20646094 -0.1468747 -0.8985873 0.2997017 -0.22694422 0.18737769 -0.0819763 0.1571444
0.3021682 0.1921735 -0.007103252 0.067347564 -0.24202979 0.20824906 0.3592278 -0.21714263
0.02794013 0.36138663 0.3540668 0.41828194 0.2885474 0.24594322 0.0077431947 -0.4828662
-0.07072467 0.20449996 0.05584222 -0.006048986 -0.09713502 -0.05896907 0.18866572 0.41440055
0.22938165 -1.3433117 -0.20596601 -0.6215722 0.007938142 0.12308302 0.63500917 -0.619593
-0.8903291 -1.3952608 -1.1283202 -0.589344 -0.33738562 -0.13487422 -0.94790506 0.38981575
-0.40897438 0.106964596 -0.23900777 -0.6713134 0.06992027 0.17907304 -0.71696275 -0.30013698
0.46117884 -0.23365222 0.30128202 0.23860143 0.06779409 -0.45549995 0.4687214 -0.30021158
0.57423615 -0.04532917 0.17435731 0.3167987 -0.47560623 0.013617589 -0.06901207 0.14664198
-0.27737626 0.056664065 0.09400227 -0.029055666 -0.20309621 -0.44281316 -0.26577148 0.19114307
0.11022329 0.30931872 -0.1460997 -1.3372052 -0.7474324 -0.65160334 -0.14645363 -0.1458264
-0.17000273 -0.6990939 -1.1041925 -0.6789139 -0.10430261 0.19677813 0.6434923 -0.52284044
-0.123057716 -0.25606343 -0.33434993 -0.053076442 0.059210885 -0.7753186 -0.35279495 0.031830676

fc1.bias f4 [10]
00000000: 04ef be3e 4348 693e a151 123e 7f8c 91be
00000010: 01f9 6cbe 7a40 413d bbe6 bd3b f688 00bc
00000020: 426b febd 2959 6d3c
0.3729173 0.22781472 0.14288951 -0.28427503 -0.23141862 0.04718063 0.0057953275 -0.007845154
-0.124228016 0.0144865895
